logs/experiment_1/checkpoints/model_current.pth (torch, 798796 bytes, 9 tensors)

net.net.0.0.weight f4 [256, 3]
000000 c0 9f 96 3e 1b b9 35 be 56 08 d2 bb 18 13 2e be
       0.29418755 -0.17746393 -0.006409685 -0.16999471
000010 8a 72 a7 be 80 22 65 bc 56 0c 61 3d ea 94 84 3e
       -0.32704574 -0.013985276 0.054943405 0.25894862
000020 db 85 52 be 8b 94 e6 bd a0 9a b2 3d 13 29 59 be
       -0.20558874 -0.11258801 0.08720899 -0.21207075
000030 2e 8e 02 be 16 1b 3e 3e c0 ba e0 3c cb c9 58 3d
       -0.1274955 0.1856502 0.0274328 0.05292682
000040 48 1d 00 3e 8b b7 02 3d 9b 04 48 be d6 57 2b bd
       0.1251117 0.03191332 -0.19533007 -0.041831814
000050 6b 35 5d be 43 2d 09 3e 53 45 4a 3e 58 86 19 be
       -0.21602409 0.13396172 0.19753008 -0.14992654
000060 fe 8d 1e be 1b b3 9c bd f6 69 61 be 00 7b 80 3c
       -0.15483853 -0.07651349 -0.22013077 0.015683651
000070 b0 62 b8 bd db 20 8d bd 7e 41 25 3e 10 3e a3 bd
       -0.09003198 -0.06891032 0.16138265 -0.07970822
000080 53 80 1a 3e ba 44 87 be 10 c8 88 3e f3 85 9b be
       0.15088014 -0.26419622 0.26715136 -0.30375633
000090 b0 1b e5 bd 2b f3 12 bd ee 7a 80 be 03 cc 34 3e
       -0.111869216 -0.035876434 -0.25093788 0.1765595
0000a0 40 cf ca 3c ee 30 7e be a0 6b ef bd ae c7 a6 3e
       0.024757028 -0.24823353 -0.1169045 0.3257422
0000b0 e0 26 ed 3d f6 cb 8f 3d 73 92 55 be 16 5a b2 3d
       0.115796804 0.07021324 -0.20856647 0.08708589
0000c0 00 7a a3 3b 36 72 39 bd ab eb 60 3c 64 9e 8b be
       0.004988909 -0.045274936 0.013728063 -0.2726928
0000d0 b6 df 90 3d e0 a6 65 3d 5b ad 10 3e b6 d4 6a 3e
       0.070739195 0.056067348 0.1412863 0.22932705
0000e0 56 b3 e0 bc 80 aa 70 3e 58 82 a1 be 8e c4 96 be
       -0.027429264 0.2350254 -0.31544757 -0.29446834
0000f0 eb 06 38 3e a3 4d 49 3e 1b f9 40 3e 50 e3 06 be
       0.17971389 0.19658522 0.18845026 -0.1317265
000100 f6 03 92 be e8 00 7b be 96 ed f3 3d fa 5e a3 be
       -0.28518647 -0.24512064 0.1191055 -0.319084
000110 ee 7b 75 be 28 68 18 3e eb b2 07 bd 6b 71 32 3d
       -0.23973057 0.14883482 -0.033129614 0.043565195
000120 90 f2 54 be cb 47 8a 3d 2b 2a 9e bd 6b be 54 be
       -0.20795655 0.06751975 -0.07722887 -0.20775764
000130 58 46 21 be 33 62 4d 3e d0 bc 8a 3d 58 95 05 3e
       -0.1574949 0.20056991 0.067742944 0.13045251
000140 4e 28 5f be 73 6a 75 3e 10 c6 13 be cb a2 71 bd
       -0.21792719 0.23966388 -0.14431024 -0.058993142
000150 86 e4 ee bd 9b e4 84 3d 78 64 78 3e ea 20 92 be
       -0.11664681 0.064889155 0.24257076 -0.28540736
000160 c8 d1 1f be 6b 21 dd bd 5e 59 41 be 56 63 c9 3d
       -0.15607369 -0.107973896 -0.18881747 0.098334
000170 68 03 9b 3e eb 93 33 be 56 41 23 3c 00 c0 93 bd
       0.30276036 -0.17536895 0.009964308 -0.072143555
000180 08 61 a6 3e 77 11 9e be 6e 50 2a 3e b8 a2 47 3e
       0.32495904 -0.308727 0.16632244 0.19495666
000190 76 90 a2 3e 8b aa 9b 3d fe d8 95 3e 4b 72 76 be
       0.3175084 0.07600888 0.29267114 -0.24067037
0001a0 72 ee 85 be ab c9 ab bb a0 57 d9 3d 8b 6a 89 be
       -0.26158482 -0.0052425466 0.10612416 -0.26839098
0001b0 00 61 12 3c 40 d5 b6 bc 3b 48 98 be fe 20 70 be
       0.008934259 -0.022318482 -0.29742607 -0.23450086
0001c0 96 35 bd 3c c0 fd 3d 3e f6 52 06 bd f6 98 04 3e
       0.02309684 0.18553829 -0.03279396 0.12948975
0001d0 5f 65 a8 3e 80 ff 2b 3d 16 cf fc bc 42 a2 83 3e
       0.3288984 0.04199171 -0.030860465 0.2570973
0001e0 8b fc 70 3d ab a4 4b 3b d7 b2 8a be d0 51 54 3e
       0.058834594 0.0031073492 -0.2708957 0.20734334
0001f0 b3 94 00 3e a8 72 40 3e 96 81 7e 3d 36 b0 83 be
       0.12556724 0.18793738 0.0621353 -0.25720376
000200 d6 8d 1e be 48 eb 3e 3e 3a 72 9d be ef ec 93 be
       -0.15483794 0.1864444 -0.3075121 -0.28891703
000210 73 5c a6 3e ab 06 bb bd 46 57 a1 bd 60 3d 64 3e
       0.32492408 -0.09132131 -0.07877974 0.22289038
000220 5b 98 0c be 2f 0c a9 3e e3 5d 56 3e 76 2e 34 3d
       -0.13729994 0.33017108 0.20934252 0.04398962
000230 d6 25 e6 3d f7 d3 9e 3e 78 6a 6d 3e 2b 42 33 bc
       0.112376854 0.3102109 0.23185146 -0.010941069
000240 7e 57 0e be 56 cd 7b ba 6b fd 41 bd 6e 8e a5 3e
       -0.13900563 -0.00096054876 -0.04736082 0.32335228
000250 fb eb b4 3d 03 cf 62 be e0 73 f6 3d 98 05 9e 3e
       0.08834072 -0.22149281 0.1203382 0.30863643
000260 96 26 eb 3c 26 61 9b 3d 60 a8 27 3e 40 32 38 3d
       0.028704923 0.07586889 0.16372824 0.044969797
000270 ae c4 47 3e a6 89 a0 3d ab 11 7c bd 9b 51 4c be
       0.19508621 0.07838754 -0.061540287 -0.19953005
000280 6b 7f 87 3c 3f 32 83 3e 20 2b af 3d 46 da 85 3d
       0.01654025 0.25624272 0.08553147 0.06535773
000290 b7 c0 a0 be 00 de d1 3d 60 96 07 be 1e 56 5d 3e
       -0.3139703 0.10247421 -0.13240957 0.21614882
0002a0 d0 f4 40 3e b6 7f 56 bd 58 6c 1c 3e 46 a6 b6 bd
       0.18843389 -0.05236789 0.15275705 -0.08918433
0002b0 a6 bb 99 bd 16 80 43 3d a6 19 92 3d db a1 d3 3d
       -0.07506494 0.047729574 0.07133798 0.10333606
0002c0 80 69 58 3d 08 2d 7b 3e 53 d0 a6 be 6b 23 26 3d
       0.052834988 0.24528897 -0.32580814 0.04056112
0002d0 d0 de 47 be 53 50 83 3e fc d0 98 be eb 4c be 3d
       -0.1951859 0.2564722 -0.29846942 0.09292015
0002e0 30 2b 7b be 36 35 72 3d 16 22 53 3e 6b 49 ab 3c
       -0.24528193 0.059132777 0.20618472 0.020909032
0002f0 96 bd c9 bc 1e 4e 34 be f6 7c 68 3d fb 78 04 3e
       -0.024626534 -0.17607924 0.056759797 0.12936775
000300 48 c5 0c be 5e 4e 0d be 97 1c 8c 3e e8 f4 11 be
       -0.13747132 -0.13799426 0.27365562 -0.1425358
000310 36 38 19 bd 43 58 65 3e 5f e4 85 3e eb f3 24 bd
       -0.037407123 0.2239695 0.26150796 -0.04027168
000320 5e e6 69 3e 16 5e 83 3c 9b db b5 bd d3 ca 75 3e
       0.22841784 0.016036075 -0.08879777 0.24003153
000330 eb 7d 28 3d ab e6 87 bd f2 7f 81 3e 90 22 6e be
       0.04113571 -0.06635793 0.25292927 -0.23255372
000340 fb b3 b5 bd 20 2f 79 3e 68 ff 04 be 46 62 fc bd
       -0.08872219 0.24334383 -0.12988055 -0.12323432
000350 5b 30 36 be 96 15 a3 be 9e 22 43 3e 8b 99 14 3d
       -0.17791884 -0.31852406 0.19056174 0.036279242
000360 96 89 a6 be 40 84 97 3d 7b ca 6a be 46 5b 38 3e
       -0.32526845 0.073982716 -0.22928803 0.18003568
000370 d6 de 12 bc 24 38 a7 be 5c 63 9f be c2 75 99 3e
       -0.008964261 -0.3266002 -0.31130493 0.29972655
000380 80 23 7b 3c 27 e3 87 be 40 d6 aa 3d 98 c7 6c be
       0.015328288 -0.2654049 0.08341646 -0.23123014
000390 6b 87 9f bd 23 52 86 3e ab cf 0a be 70 99 da bd
       -0.07789501 0.2623454 -0.13555782 -0.10673797
0003a0 40 74 e0 3d 76 7d 5c bd 60 d1 8f 3e 90 51 f1 bd
       0.10959673 -0.053830586 0.28089428 -0.11783135
0003b0 b6 a1 e5 3d 7b a0 d6 3d f0 66 6d be 1b 1d 0c 3e
       0.112124845 0.10479828 -0.23183799 0.13682978
0003c0 56 b8 d1 3c 40 7d dd 3d 50 73 52 be 33 c0 4b 3e
       0.025600594 0.10814905 -0.205518 0.19897537
0003d0 6b ec 10 3e 96 2b c1 3d 3b b4 84 3e 33 2a 9d 3e
       0.14152686 0.094321415 0.25918755 0.30696258
0003e0 96 b5 30 bd db b9 f7 3d 9b 40 38 3e ac b8 9f be
       -0.043141924 0.12095996 0.17993395 -0.3119558
0003f0 c0 6b 5d bd ab 15 de bb 60 a5 99 3d b6 05 08 bd
       -0.054057837 -0.0067774854 0.07502246 -0.03320857

net.net.0.0.bias f4 [256]
000000 e0 eb 01 bf 76 5f 0c 3f b5 42 53 3e 33 fe 09 bf
       -0.5075054 0.5483316 0.20630915 -0.539035
000010 47 03 11 3e ea 3c a9 be 4c ac f4 3c 8b 70 5f be
       0.14161406 -0.33054286 0.029867314 -0.21820275
000020 e7 f3 09 3f 24 53 83 be 3e 88 e1 be 6e 64 06 3e
       0.5388779 -0.2564937 -0.44049257 0.13124248
000030 a6 c6 05 3e 8b b0 ff 3e 69 11 98 3e 49 3d 91 3d
       0.1306406 0.4993938 0.29700783 0.07091767
000040 63 a4 f4 3e e1 71 2b 3c 17 c6 ba 3e dd 09 c1 bc
       0.47781667 0.010464163 0.36479256 -0.023564273
000050 5c 81 ba be 49 a1 d2 3e db 33 00 be a6 ad b1 be
       -0.36426818 0.41138676 -0.12519781 -0.34702796
000060 6e a0 bb 3e 8c fa 8f be fe 87 8a be 26 57 06 3e
       0.36645836 -0.2812084 -0.2705688 0.13119182
000070 a6 55 9d be ee 72 66 3e 30 a3 14 be 3d cc 0e 3f
       -0.30729407 0.2250478 -0.14515376 0.5578039
000080 bb ff e5 bd 9a a3 92 be 52 79 1c be c9 af 7b 3d
       -0.11230417 -0.28640443 -0.15280655 0.06144694
000090 30 a7 72 be e3 01 8c 3e d4 29 0a 3e 0e 22 09 3f
       -0.2369659 0.2734519 0.13492519 0.5356759
0000a0 7e 6a 87 3d 07 22 c9 3e cf 90 9c 3b a4 0d 64 be
       0.06612109 0.39283773 0.0047780047 -0.22270828
0000b0 ec 03 ba 3d 56 20 84 3e 78 25 0f 3e 07 d8 08 3f
       0.09082779 0.2580592 0.13979137 0.5345463
0000c0 b6 07 6f be df 63 ca be ca 70 0a 3e e8 10 b2 be
       -0.23342785 -0.3952932 0.13519588 -0.34778523
0000d0 5f fd cf 3d 46 20 47 3c 70 f7 07 3e 8e 89 ce be
       0.101557486 0.012153691 0.13277984 -0.4033932
0000e0 d9 df e0 bd 83 fb cf 3e 19 f5 f7 3e 8f b1 3a 3d
       -0.109801956 0.40621576 0.48429182 0.04557949
0000f0 3a fa 2e be ec 08 05 3f 18 c1 87 bd c7 30 03 bf
       -0.17087641 0.5196674 -0.066286266 -0.51246303
000100 9b ba b5 3e c1 71 a4 3e 4b 90 c0 be 07 e2 10 3e
       0.3549393 0.32118037 -0.37610087 0.14148723
000110 2c 41 81 be be 19 c4 3e cd 58 94 3d 19 02 21 be
       -0.25245035 0.3830089 0.072435 -0.15723456
000120 ac ef 19 be 5d c3 00 be 21 35 9c be 32 9b 91 be
       -0.15032834 -0.12574525 -0.30509284 -0.28438717
000130 08 2f c3 bd f9 dd 89 be 87 ed e6 3e d9 27 cd 3e
       -0.09530455 -0.26927164 0.45103094 0.40069464
000140 62 4e af 3e dc 3a 94 be 4d 5d 0f bf 6a 7a de be
       0.3423949 -0.28951156 -0.5600174 -0.4345277
000150 cd 88 dc 3e 38 20 87 be 20 a2 a0 be 4c 31 d4 bc
       0.4307312 -0.26391768 -0.31373692 -0.025902413
000160 ed 20 7d bc 86 01 d8 3d 79 39 56 3e 2a 73 8b 3e
       -0.015449745 0.105471656 0.20920362 0.272363
000170 a7 6f 57 be b7 09 ed 3e 5f 12 9e be 24 6a b9 be
       -0.21038686 0.46296474 -0.3087339 -0.3621379
000180 cf de 39 be a2 e7 6c 3e 75 2b c3 3d 92 d7 cb 3e
       -0.18151401 0.23135236 0.09529773 0.39812905
000190 4d 16 96 3e 57 ab 71 3e 78 f2 97 3e 46 01 9b 3e
       0.2931389 0.23600517 0.29677176 0.3027441
0001a0 fb 2d 71 3d ee 05 e7 3e 23 82 31 be 52 12 94 be
       0.05888174 0.45121711 -0.173348 -0.28920227
0001b0 46 45 fc 3e 2d e0 e8 3c 2d d8 f4 3e ec 93 ff 3e
       0.492716 0.028427208 0.4782118 0.49917543
0001c0 f2 fd cb be 7f 1e f8 be ad a9 09 3f df 06 c5 3d
       -0.39842182 -0.48460767 0.5377453 0.09620451
0001d0 90 d1 65 3e eb c8 12 bf 67 ff de 3e da 11 ee 3e
       0.22443223 -0.57337826 0.43554232 0.46497995
0001e0 17 81 49 3c 00 6c 33 be b7 00 99 3e fe f6 9e 3e
       0.012298844 -0.17521667 0.29883358 0.31047815
0001f0 ae 4e 04 3f c9 29 16 3e 6b 26 d3 bd e7 b5 9a be
       0.51682556 0.14664377 -0.10310062 -0.30216905
000200 c9 ee 2d be 78 f7 da be 15 f1 aa 3e d7 f3 7b 3e
       -0.1698562 -0.4276693 0.33387056 0.24604736
000210 4a 74 c9 be 37 1b b0 be fc 3c 12 bf 51 8c f2 be
       -0.39346534 -0.34395763 -0.57124305 -0.47372678
000220 f6 74 72 3e 21 bb a8 3e ae 2f 8f 3c 5f b5 cd 3e
       0.2367743 0.32955268 0.01747879 0.40177438
000230 3e 97 f5 bd 70 03 d9 be 49 cd 31 bd 71 b8 e9 3e
       -0.11991738 -0.42385435 -0.043408666 0.4564853
000240 7d 9d fc 3e e1 b3 fb 3e 28 3d 8e be f5 ea 3f be
       0.49338904 0.49160674 -0.27781034 -0.18741973
000250 ec 07 d9 be 84 5a 2d 3e d3 9e 96 3e 99 64 85 be
       -0.42388856 0.1692906 0.29418048 -0.26053312
000260 a0 d6 b9 3e ca cd ff 3e fe fa 0f bf 51 5e 81 3e
       0.36296558 0.49961692 -0.5624236 0.2526727
000270 bd 1b be bc 67 4d a9 3e 4d 61 60 bd bd d9 f7 be
       -0.023206586 0.33066866 -0.054780293 -0.4840831
000280 66 28 fd be af 47 07 3f 4b 5e eb 3d 2b 2a 9b 3d
       -0.49444884 0.52843755 0.11492594 0.07576402
000290 32 53 81 be 86 dd be be 80 d4 88 be a1 dd 61 3b
       -0.25258785 -0.37278384 -0.26724625 0.0034464377
0002a0 d0 ca b4 bd ed ca 9e 3e 89 d2 c9 be bc 27 b8 be
       -0.08827746 0.31014195 -0.39418438 -0.35967815
0002b0 6d 66 a6 be 8d 11 a1 3e c0 d0 99 3e 44 76 e0 3e
       -0.3250002 0.31458703 0.30042076 0.4384023
0002c0 e3 02 80 3e 21 ce e0 bd b0 95 ef 3e 05 f0 0a bf
       0.25002202 -0.10976816 0.4679389 -0.5427249
0002d0 0b 27 62 be f0 fd f5 3d e6 b1 01 3e b9 36 07 3f
       -0.22085206 0.12011325 0.12665519 0.52817875
0002e0 f9 0c cd be 28 cc 3d be 71 d0 cb 3c 9b bf 45 be
       -0.4004896 -0.1853491 0.024879666 -0.19311373
0002f0 a7 6f af 3e 7e d4 57 be 54 f2 b5 be 00 e7 6a 3e
       0.3426487 -0.21077153 -0.35536444 0.22939682
000300 84 54 3b 3d 32 21 b0 be 30 00 ae 3e ff 46 06 bf
       0.045734897 -0.34400326 0.33984518 -0.5245208
000310 84 18 0a bf e4 aa 5d bc 3f e1 df 3e 0c 2e de 3e
       -0.5394366 -0.013529513 0.43726537 0.43394506
000320 5f 01 81 3e 3a 76 10 3e 42 a1 c8 bd 14 7e e0 3e
       0.2519636 0.141076 -0.097963825 0.4384619
000330 e4 32 dc be 63 5a de be 77 14 d2 3d d0 30 09 3e
       -0.43007576 -0.43428335 0.102578096 0.13397527
000340 9b dc f6 3e 56 97 31 3e 82 83 d2 be b3 c9 84 be
       0.48215184 0.17342886 -0.41115957 -0.25935134
000350 d3 7e 08 bf 57 d0 06 be 6b a0 06 3e 7f 69 a8 be
       -0.5331852 -0.13165413 0.13147132 -0.32892987
000360 9a f3 ad 3e b5 52 b2 3e 42 ee da 3e 27 c5 ab 3e
       0.33974916 0.34828725 0.427599 0.33548853
000370 ef 09 81 be 1d 31 91 3e e9 f4 20 3c 50 83 e7 3d
       -0.2520289 0.28357783 0.009824016 0.11304343
000380 8b 9c a2 3c 96 c8 ff be d5 fc 87 be 0a 9e 0b 3f
       0.019850036 -0.49957722 -0.26560083 0.54538023
000390 53 72 8b bd 8c 0b fc 3d f9 02 aa 3c 50 d1 1f 3e
       -0.06808915 0.1230689 0.02075337 0.1560719
0003a0 76 22 b3 3d 95 83 2f 3e 7b de dc 3e e8 29 c0 3e
       0.08746807 0.17140038 0.4313849 0.37531972
0003b0 31 f7 85 3e 6d e5 ca 3d 97 ce 6d be 18 e7 e2 be
       0.26165155 0.09907041 -0.23223339 -0.44316936
0003c0 5e 2f 86 bd 38 a8 a7 ba 7d 84 35 be ae 49 90 be
       -0.06552003 -0.0012791222 -0.17726322 -0.28181213
0003d0 2e 0c d9 be 9a 8c e1 be bf 75 7f be 5b 8c 1f bd
       -0.42392105 -0.44052583 -0.2494726 -0.038952213
0003e0 01 f8 88 be dc 68 2c be a7 f1 c5 3e 71 d6 3e be
       -0.26751712 -0.16836876 0.3866093 -0.1863649
0003f0 42 02 cf bc c7 81 bb 3e 85 49 f7 3e ad bf ad 3e
       -0.025269631 0.3662245 0.48298278 0.339353

net.net.1.0.weight f4 [256, 256]
000000 f9 19 dd ba ad f3 63 3b e7 cd 3f 3a ec 21 46 bb
       -0.0016868702 0.0034782693 0.00073167536 -0.0030232621
000010 04 91 27 3b 98 01 a4 3b ff e8 1b bb 55 d5 9a 3b
       0.0025568614 0.005005073 -0.002379 0.004725138
000020 3f 5b b7 3a b8 0e e6 ba a2 39 e5 ba 5c 3f 5d bb
       0.0013988985 -0.0017551994 -0.0017488489 -0.003375969
000030 ae ec 30 bb 4b 57 58 37 fb 35 0e bb 9d e0 99 b9
       -0.002699654 1.2894928e-05 -0.0021699655 -0.00029349784
000040 24 2b 88 3b b1 11 7e bb 8c 6d 45 ba 2a 8d 97 bb
       0.0041555334 -0.003876787 -0.00075312774 -0.0046249824
000050 b5 b5 3d 3b b9 f3 00 bb 74 64 56 ba 45 9a 9e bb
       0.0028947417 -0.001967652 -0.0008178421 -0.0048401677
000060 bb 02 3d ba 4c 31 f0 ba 6b 83 93 3b a4 8f 78 bb
       -0.00072101847 -0.0018325238 0.00450175 -0.0037927413
000070 a7 3d a3 bb b5 47 5d bb 52 6a 55 bb cf 9d 9f 3b
       -0.0049817148 -0.0033764665 -0.0032564593 0.004871107
000080 5c 60 3f bb 48 37 ed 3a d1 3d 9e bb 1d 1d bc ba
       -0.0029201722 0.001809814 -0.0048291464 -0.0014351938
000090 ac 13 86 3b b6 ee 00 3a da 8b d3 ba cf cb fc 3a
       0.0040917005 0.0004918383 -0.0016139701 0.0019286814
0000a0 ce e3 13 3a aa c9 ef 3a f3 d8 a2 3b 87 1b 91 bb
       0.00056415505 0.0018294354 0.00496971 -0.0044283303
0000b0 92 77 8c 3b be 81 3e bb e9 a7 86 bb 22 9c 35 39
       0.004286715 -0.0029069032 -0.004109372 0.00017319669
0000c0 3a 0d c2 ba d5 47 94 3b 51 48 40 bb 18 4b 98 bb
       -0.0014804967 0.0045251646 -0.002933998 -0.0046476237
0000d0 7e 6c 78 3b 60 30 9e bb 59 ce 82 bb 16 e7 04 b8
       0.0037906463 -0.004827544 -0.0039918837 -3.1686468e-05
0000e0 2a 01 00 3b cd 3a 81 bb 20 9a 7c bb 88 10 2c bb
       0.0019531944 -0.003943777 -0.0038544014 -0.002625497
0000f0 f6 7d cf 3a f9 92 9f bb 41 68 3d bb ba 9d 9d bb
       0.0015830386 -0.0048698154 -0.0028901251 -0.0048100622
000100 5f ed a4 bb 8b 22 56 3b 2f 6d ab 3a 5d 65 34 bb
       -0.0050331797 0.0032674398 0.0013078804 -0.0027526238
000110 40 6b bf 3a 03 aa 07 3b e7 05 3f 3a 9c de a2 bb
       0.0014604107 0.00207007 0.00072869513 -0.0049703848
000120 36 48 a0 bb ba 99 f0 3a d5 af c2 ba 0c f9 9f 3b
       -0.0048914207 0.0018356361 -0.0014853427 0.0048819836
000130 c3 70 3c 3b bb b8 c7 3a 04 98 87 3b 52 88 14 3b
       0.0028753735 0.0015237549 0.0041379947 0.002266426
000140 0f a9 98 bb 37 b8 48 bb 3d 5e 94 ba 32 0d 66 bb
       -0.004658825 -0.0030627379 -0.0011319589 -0.003510308
000150 fb 41 19 3b 46 b9 92 3a 6b 05 f7 b9 84 33 5f bb
       0.0023385275 0.0011194132 -0.00047115548 -0.0034057805
000160 3d a7 a6 bb a9 a7 56 3b 32 d8 46 bb ea 9a 88 bb
       -0.0050858543 0.0032753742 -0.0030341265 -0.004168858
000170 7b 7f ff 3a 71 39 d1 39 79 71 23 bb b8 6b ad 3a
       0.0019492948 0.00039906384 -0.002493946 0.0013230955
000180 77 f2 2b bb b3 e5 95 bb b5 17 5d 39 a8 79 42 3b
       -0.002623705 -0.0045745014 0.00021085034 0.0029674564
000190 24 28 c3 ba 44 af 7e 3b 67 ba ab 3a 32 69 00 3b
       -0.0014889282 0.003886179 0.0013101817 0.0019593951
0001a0 42 b5 e9 ba 49 6b 5c 3b d4 c1 7e b9 be 43 7a bb
       -0.0017830508 0.0033633283 -0.00024295534 -0.003818735
0001b0 27 6f 5c bb 35 2a 98 bb 10 e9 68 3b 25 2c 8e 3b
       -0.0033635588 -0.0046437033 0.0035539307 0.0043387585
0001c0 c8 35 8c 3a 7b bd a1 ba bb 9b 90 ba 47 29 13 bb
       0.001069718 -0.0012339795 -0.001103274 -0.0022455023
0001d0 e9 ef 9d bb b3 c3 80 3b 62 ee 5b bb 79 08 51 3b
       -0.0048198593 0.003929579 -0.0033558835 0.003189592
0001e0 75 d9 7a 3b bc b7 d6 ba ab c1 c0 ba 7c d9 5d bb
       0.0038276587 -0.0016381661 -0.0014706155 -0.0033851555
0001f0 f2 5a 89 bb b0 2a 03 3b f0 34 1e 3b 1a a8 b4 3a
       -0.0041917497 0.0020014457 0.002414044 0.0013783008
000200 b0 98 06 3b ea ff 68 3b 23 b7 83 3b 6b 4c 32 bb
       0.0020537786 0.0035552927 0.0040196343 -0.0027206193
000210 99 88 7b 3a 70 15 ff b7 64 b8 98 b9 8e ce 66 bb
       0.0009595245 -3.0408351e-05 -0.0002912908 -0.003521833
000220 5d 81 8e bb dc c2 44 3a 57 b2 87 ba 36 c2 4f bb
       -0.0043489174 0.0007505843 -0.0010352832 -0.0031701452
000230 0c 20 84 3a 38 a8 a0 ba 77 04 ab ba 6c 7b 77 3b
       0.0010080351 -0.0012257164 -0.0013047595 0.0037762774
000240 bd 29 95 3b 96 64 56 bb 8f 21 8a bb f5 9e 88 b9
       0.0045520947 -0.0032713762 -0.0042154263 -0.00026058374
000250 3a fb 8a 3a 98 87 94 38 61 12 8b bb 54 06 67 3b
       0.0010603436 7.082446e-05 -0.0042441343 0.0035251575
000260 78 5b 2d bb 99 ba d3 ba e9 bc b3 3a c4 67 66 3b
       -0.0026452225 -0.0016153633 0.0013712916 0.0035157064
000270 c8 59 ce ba 85 09 91 3b f1 ae 6d 3b 41 7e 55 bb
       -0.001574331 0.0044261836 0.0036267603 -0.0032576474
000280 8c 06 38 b9 65 f6 9d bb e6 00 a8 ba 00 7d f1 3a
       -0.00017550046 -0.0048206323 -0.001281765 0.0018424094
000290 05 2c 47 3b 6b ae 8b bb 79 f6 d5 3a 0b 87 4d ba
       0.0030391228 -0.0042627356 0.0016324065 -0.00078402524
0002a0 4b e3 8a 3b 39 74 82 3b 5b e7 47 bb 8b ce 87 3b
       0.004238521 0.00398114 -0.003050289 0.004144495
0002b0 68 ff 91 3b 64 d5 6f 3b 62 b9 88 3b ea 37 21 bb
       0.0044554956 0.0036595697 0.00417249 -0.0024599978
0002c0 ab a1 90 bb b3 50 58 bb b1 25 39 3b 65 92 4a ba
       -0.0044138036 -0.0033007085 0.0028251226 -0.0007727503
0002d0 e3 ad 8f 3a 2f b9 63 3b 4a 76 2c bb db 01 2b 3b
       0.0010961856 0.003474783 -0.0026315623 0.0026093635
0002e0 38 28 27 3a a4 42 94 bb 95 0d 58 3b f0 cf 8c 3b
       0.00063765375 -0.0045245457 0.003296708 0.004297249
0002f0 37 67 8f 3b e9 0e 4b b9 0a e2 29 bb e9 09 36 bb
       0.004376318 -0.00019365143 -0.0025922083 -0.0027776903
000300 49 0c a0 bb b8 cf f8 3a 29 91 77 3a 8b 9b 29 bb
       -0.004884277 0.0018982803 0.0009443933 -0.0025880064
000310 92 40 3d bb 04 f4 87 bb a0 bd 9c 3a 58 b2 7d ba
       -0.0028877598 -0.004148962 0.0011958368 -0.00096777594
000320 87 f2 af 38 ba 51 89 bb 49 21 74 3b 2a c2 24 bb
       8.3898245e-05 -0.004190651 0.0037251285 -0.0025140145
000330 65 98 df 3a 91 12 a4 3a 48 58 f3 3a 6d 26 85 ba
       0.0017058967 0.001251774 0.0018565739 -0.0010158547
000340 be bf 27 3b 50 a0 bb 3a fb 3d d0 3a 02 b7 1b 3b
       0.0025596465 0.0014314745 0.0015887612 0.0023760204
000350 7d 79 da ba 63 18 38 ba bc 72 45 ba e6 44 a2 ba
       -0.0016668286 -0.0007022677 -0.00075320504 -0.0012380152
000360 60 99 9c bb 4b b6 be ba 49 31 8e bb 90 ea 52 3b
       -0.004779026 -0.0014550177 -0.0043393713 0.0032183267
000370 8b 06 be 39 bd 8e 6c 3a 1b 00 13 bb 88 1f 76 3b
       0.000362445 0.0009023955 -0.0022430483 0.0037555415
000380 e4 62 b3 ba 53 e0 98 bb 44 f3 85 3a 54 e9 4d bb
       -0.0013686088 -0.0046654134 0.0010219594 -0.0031419592
000390 4d d6 2d bb d2 71 b5 ba 1c a1 b3 3a 71 c4 f4 3a
       -0.0026525438 -0.0013843125 0.001370463 0.0018674267
0003a0 8c 12 a5 3b a5 9c a3 39 ad 44 6a 3b 7e 16 bd b8
       0.0050376114 0.00031206492 0.00357465 -9.016412e-05
0003b0 00 63 82 3b 33 70 88 3b 5b 4f b6 ba d3 3a 81 3b
       0.003979087 0.004163766 -0.0013909148 0.00394378
0003c0 c6 9c 6e 3b 79 33 7e bb 9e 1b c2 ba 94 9c 26 3b
       0.0036409362 -0.0038788004 -0.0014809256 0.0025422918
0003d0 9c a7 82 3b d4 bf 6b bb e7 91 02 bb aa 63 c3 3a
       0.0039872658 -0.0035972493 -0.001992339 0.0014907022
0003e0 19 90 99 3b 09 43 a2 bb 32 cc 59 3b ce 0e 3c bb
       0.004686367 -0.004951839 0.0033233282 -0.0028695348
0003f0 a7 f5 90 3b da a0 18 bb fe ee 86 bb 5a 3d 88 3b
       0.0044238153 -0.0023289234 -0.0041178456 0.0041577043

net.net.1.0.bias f4 [256]
000000 00 5d 2f 3b 70 f4 a8 bc 74 ca 48 3d bc dd 75 bd
       0.0026758313 -0.02062437 0.0490212 -0.060025916
000010 30 f0 44 bc 10 2e 0f 3c ac bd f6 3c 10 8c fb bc
       -0.012020156 0.0087390095 0.03011974 -0.030706435
000020 50 3b 8d 3c 86 54 38 3d fc d4 c9 3c c8 32 0b 3c
       0.017240196 0.045002483 0.024637692 0.008495994
000030 32 58 4d 3d 62 04 47 bd d0 cc 31 3c aa 4e 51 3d
       0.050132938 -0.048588164 0.010852054 0.05110041
000040 80 bc 6c bd a8 5c 9b 3c e0 5c 77 3c b0 75 fa 3c
       -0.057796955 0.01896508 0.015097827 0.030573696
000050 54 f4 dd 3c 0a 95 5a 3d ba c1 57 3d b6 82 20 bd
       0.027094044 0.05336479 0.052674986 -0.039187156
000060 8a a8 63 bd 9c e8 78 bd 84 f4 4b 3d 74 ae 37 3d
       -0.055580653 -0.06076871 0.049793735 0.044844106
000070 e8 37 29 bc 28 ce 2a 3c ac 13 f8 3c d8 41 af bc
       -0.0103282705 0.010425128 0.030282818 -0.021393701
000080 4c b9 f7 bc c0 da 5a bb cc 2c 29 3d 14 13 1c bd
       -0.030239724 -0.0033394545 0.041302487 -0.03810413
000090 10 d3 c5 bc 2e 08 77 bd 4a 08 18 3d e4 c9 c3 bc
       -0.024148494 -0.060310535 0.03711728 -0.02389998
0000a0 70 e9 10 bc 6e 68 60 3d 10 00 24 bd 00 bb 11 3b
       -0.008844718 0.054787092 -0.040039122 0.0022236705
0000b0 b0 82 da 3c 02 07 21 bd 3c bd 7b 3d e8 df c4 bc
       0.026673645 -0.039313324 0.061459765 -0.024032548
0000c0 ce e4 2e 3d 82 00 40 bd d8 8f 0d 3c b8 35 12 3d
       0.042698674 -0.046875484 0.008640252 0.03569576
0000d0 80 18 0b 3b 94 9b a4 bc a8 8f 4c 3c 40 92 48 bb
       0.002122432 -0.020093717 0.012485422 -0.003060475
0000e0 24 7a 34 bd 68 8e 16 3d 8c 54 20 bd c0 ae bb 3c
       -0.044061795 0.036756903 -0.03914313 0.022910476
0000f0 80 5e 50 3a f8 d7 9f bc 92 a1 67 bd f8 d5 16 bd
       0.0007948652 -0.019512162 -0.05655057 -0.03682515
000100 74 0c 78 bd 62 a2 24 3d 80 67 b0 bb 42 b1 09 3d
       -0.06055875 0.040193923 -0.005383432 0.03361631
000110 b0 ba c9 3c f8 3c 90 3c 7c b6 b7 bc e0 42 32 bc
       0.024625152 0.017607197 -0.022425883 -0.010880202
000120 a0 f5 ac bc 12 f6 30 bd 90 14 1d 3c ae 1e 3d bd
       -0.021113217 -0.04320342 0.009587422 -0.046171837
000130 dc 04 5b 3d 20 19 ff 3b 18 b1 d3 bc 00 76 42 39
       0.05347143 0.0077849776 -0.02584128 0.0001854524
000140 68 eb 9e bc 68 f3 b0 3c e4 b8 7e bd a0 5f ad bb
       -0.01939936 0.02160044 -0.062188044 -0.0052909404
000150 90 53 c6 3b f0 dc d9 3b 60 9a e4 3b ba 42 06 bd
       0.006052442 0.0066486523 0.0069764107 -0.03277848
000160 b8 41 07 bc 60 6f 59 3b c2 e1 71 3d 20 2c 4f 3c
       -0.008255415 0.0033177957 0.05905319 0.012644798
000170 86 17 10 3d a0 96 46 bd 42 3c 00 bd 24 ab 4b bd
       0.035178684 -0.04848349 -0.031307466 -0.04972376
000180 8c 54 0b bd c8 77 cb bc 18 25 73 bd 88 b2 13 3d
       -0.034016177 -0.02483739 -0.059361547 0.036058933
000190 a4 42 b8 3c 28 86 78 3d 50 ea b0 3b 40 21 cb 3b
       0.022492714 0.060674816 0.005399026 0.006199032
0001a0 18 06 74 bc 00 a2 89 3b 86 5c 06 3d 40 2d 81 3b
       -0.014894031 0.00420022 0.03280308 0.003942162
0001b0 a4 49 fc bc 66 5d 18 bd 24 e6 b1 bc c8 c9 9a bc
       -0.030796833 -0.037198447 -0.021716185 -0.018895045
0001c0 d8 fb 13 3d b4 f0 9a 3c fc 30 38 bd e0 16 cb 3c
       0.03612885 0.018913604 -0.04496859 0.024791181
0001d0 18 ea 3e 3c 46 46 6a 3d 06 73 72 3d c4 27 b0 3c
       0.011652492 0.057195924 0.059191726 0.021503337
0001e0 c8 27 d2 3c 7c db db 3c 38 af d5 3c 92 8e 44 3d
       0.025653735 0.026838057 0.026084527 0.04798753
0001f0 10 72 bd bc 6c 87 fe bc 4a e5 05 3d 20 08 ca 3c
       -0.023125678 -0.031070434 0.03268937 0.024662077
000200 d8 f4 6c 3c 20 6a de bb 62 94 75 3d fa 45 65 3d
       0.014462672 -0.0067875534 0.059955962 0.055974938
000210 48 98 6d bd 00 29 4d bc 50 ac e2 bb b0 00 0a 3d
       -0.058006555 -0.012521982 -0.006917514 0.033692062
000220 4e 6e 7e 3d 88 cc 5d bd 00 9d f3 3c e0 99 27 3c
       0.062116913 -0.054150134 0.02973795 0.010229558
000230 c0 a6 bc ba d6 4b 62 bd 2c 86 8f 3c b8 1e 13 3d
       -0.0014392957 -0.055248104 0.017520033 0.035917968
000240 70 7e 02 bd 78 8e d8 3c 6a 81 18 bd b8 df 96 3c
       -0.03185886 0.026435122 -0.037232794 0.018417224
000250 e0 e3 c4 3c 00 19 27 bc 08 32 36 bd fc a8 71 3d
       0.02403444 -0.010198832 -0.044481307 0.058999047
000260 58 1d f5 3c 44 85 41 3d a8 99 75 3c 72 e7 6f bd
       0.029921219 0.047246233 0.014990248 -0.058570333
000270 02 a3 55 bd a2 9a 08 3d d0 39 a0 3b 68 f8 4a 3d
       -0.05215741 0.033350594 0.0048897043 0.049553305
000280 14 31 55 3d e8 be f3 bc e0 ad f8 bc 50 a7 1c bd
       0.052048758 -0.029754117 -0.030356348 -0.0382455
000290 80 e3 9f bb 3c e3 fa 3c 78 00 16 3d 80 e2 3e 3d
       -0.004879415 0.030625932 0.03662154 0.046602726
0002a0 48 24 17 3c c0 0e 2a bb 80 6b 10 bc 3c 0b ac bc
       0.009224959 -0.0025948733 -0.0088146925 -0.02100145
0002b0 f8 fb 38 bc 38 e8 fc bc c0 55 b3 3c b4 57 f8 3c
       -0.011290543 -0.03087245 0.021891475 0.030315258
0002c0 1e 9a 75 bd 62 fe 30 bd a0 56 e5 3b e4 cf 0c bd
       -0.05996143 -0.04321135 0.006998852 -0.034377947
0002d0 94 88 cb bc 30 b0 c9 bb ae 52 3e bd 80 3f 10 3d
       -0.024845399 -0.0061550364 -0.04646557 0.03521681
0002e0 9e 98 38 bd 00 b3 92 3c e6 dc 7d 3d e8 b2 5c bc
       -0.045067422 0.01790762 0.061978243 -0.013470389
0002f0 c8 3d 39 3c 94 b7 41 3d 6c 40 f5 3c 00 a9 d9 ba
       0.011306234 0.047294214 0.029937945 -0.0016606152
000300 48 0f 3d 3d b6 ea 00 3d d4 97 39 bd ca 5f 62 3d
       0.04615715 0.031473838 -0.04531081 0.055267133
000310 9c 59 4b 3d f4 2c 41 bd dc 80 77 3d ea 42 24 bd
       0.049646005 -0.04716201 0.060425624 -0.040102877
000320 40 5e a6 bb c4 51 bc 3c 98 70 12 bc c0 08 26 bb
       -0.0050771534 0.022988208 -0.008937977 -0.0025334805
000330 00 71 52 ba c0 fd f2 ba ee 64 70 3d 1c 6c 61 3d
       -0.00080277026 -0.0018538758 0.058690004 0.05503474
000340 58 6a a0 3c c0 c7 29 bc 64 b1 d0 3c 82 e9 3a 3d
       0.019581959 -0.0103625655 0.025475211 0.045632847
000350 2c 67 92 3c a0 5f 7a bd 98 76 50 bc b0 f2 2b 3c
       0.017871462 -0.06112635 -0.012723587 0.010494873
000360 98 74 f2 bc 80 8e 5a 3d d6 64 7e 3d 44 59 60 3d
       -0.029596612 0.053358555 0.062107883 0.05477263
000370 2c 55 bc 3c 1e 33 15 bd 60 33 6c 3b 28 da 50 bc
       0.022989832 -0.036425702 0.0036041364 -0.012747325
000380 50 ca 44 bd 20 ab e6 bb 7c 72 5b bd 10 69 cb bb
       -0.048044503 -0.0070394427 -0.053575978 -0.006207593
000390 2e 32 78 3d 00 ab ec 3b b0 44 f3 bc 9c c8 b2 bc
       0.06059473 0.007222533 -0.029695839 -0.021824174
0003a0 08 df da bc 28 ca 32 bd d8 1a d1 bc 78 a1 c5 3c
       -0.026717678 -0.043649822 -0.025525495 0.024124846
0003b0 f0 9a 98 bb 26 82 08 bd 74 e2 f2 3c 90 94 24 bc
       -0.004657142 -0.033327244 0.029648997 -0.010045186
0003c0 a0 81 b2 3c c8 bc 9d bc 64 49 62 bd 02 1d 6b 3d
       0.021790326 -0.019255057 -0.055245772 0.05740071
0003d0 34 53 23 3d 00 60 38 bb 34 03 74 3d 94 b2 0f 3d
       0.03987427 -0.0028133392 0.059573367 0.035082415
0003e0 48 d2 39 bc 90 7b ec bc c8 60 f0 3c 60 35 1e 3c
       -0.011341639 -0.028867513 0.029343024 0.00965628
0003f0 9a 76 67 3d 44 0b a1 3c 08 6c 16 bd b8 f8 0f bd
       0.05650959 0.019658692 -0.03672412 -0.035149306

net.net.2.0.weight f4 [256, 256]
000000 35 cf d9 39 5e cb e6 3a 99 13 f5 39 1f d1 45 3a
       0.00041543847 0.0017608216 0.00046744643 0.0007546115
000010 f0 7c 37 3b 95 75 76 3b 4f bb 5b 3b 7e 6a a0 bb
       0.0027998053 0.0037606705 0.0033528393 -0.0048955074
000020 ce 54 7c bb fc 59 8e 3b 37 13 9c bb cf a5 28 3a
       -0.0038502696 0.004344223 -0.004763033 0.0006433399
000030 f6 b4 22 bb a7 5c d9 b9 8f 98 a6 38 16 45 92 bb
       -0.00248271 -0.00041458497 7.943913e-05 -0.004463802
000040 7f a6 9a 3b 8f 68 1e 3b 5c 6f 77 bb 0e 7f 7f bb
       0.004719555 0.0024171208 -0.0037755584 -0.0038985643
000050 f6 ad 83 3a ac 0e 3d 3b ae a5 9e bb 58 87 61 3b
       0.0010046351 0.0028847856 -0.004841528 0.0034412947
000060 4f a2 0e bb 3e ab 8e ba bf 13 84 bb 48 95 8e bb
       -0.0021764224 -0.0010884774 -0.004030674 -0.004351292
000070 4d 2e 9d bb 65 4b 0e 3b b7 77 87 3a 2e d1 9c 3b
       -0.0047967792 0.002171242 0.001033536 0.0047856783
000080 c7 ca 4c bb e8 94 6e 3b 48 09 e7 ba b2 20 8b bb
       -0.0031248794 0.0036404673 -0.0017626667 -0.004245841
000090 4a d3 2c bb 80 59 4d 3b 67 96 a5 3b 0a 0d 5c bb
       -0.0026371055 0.0031333864 0.0050533297 -0.0033577108
0000a0 13 b2 41 3b 01 d8 6f bb d0 3a c9 b9 7f 47 c8 3a
       0.0029555603 -0.0036597254 -0.00038381526 0.0015280097
0000b0 e6 75 84 bb 60 2a 61 39 5e e3 3c 3b f1 9b 8a ba
       -0.004042375 0.00021473458 0.0028822045 -0.0010575039
0000c0 cf 40 6f bb 97 da 9a 3b 9b 9a 98 bb 2c b1 81 3b
       -0.0036507135 0.004725765 -0.0046571023 0.003957888
0000d0 7e 86 75 bb 6a 71 9e bb 6d 5b 6f 3b d1 16 8c ba
       -0.0037464197 -0.0048352974 0.0036523 -0.0010687952
0000e0 ca ce 9b 3b 76 81 56 3b 66 43 e9 ba 2c 61 4b 3b
       0.004754876 0.0032730973 -0.0017796576 0.003103326
0000f0 14 54 ee 3a dc f2 da 39 d2 25 94 3a 1b 27 07 bb
       0.0018183016 0.00041761145 0.0011302775 -0.0020622674
000100 8d 37 96 3b 3c 4c 51 bb 3a f7 05 bb 8e a5 8c 3b
       0.004584259 -0.0031936308 -0.0020441548 0.0042921966
000110 9d 39 ac 3a b7 fc 77 3b f3 ba ae 39 0e 6b 55 b9
       0.0013139729 0.0037839839 0.00033327154 -0.00020353144
000120 ec 81 38 3b b7 44 81 3b 28 7d 82 bb 27 5b c3 3a
       0.0028153611 0.003944959 -0.003982205 0.0014904485
000130 ff d7 02 3b c6 d1 52 39 b9 0e 80 3b 72 9d 10 bb
       0.001996517 0.00020105307 0.003908005 -0.00220665
000140 cc e6 25 bb 4d fd 86 ba 3a 50 a7 ba 3f 85 91 bb
       -0.0025314568 -0.0010298878 -0.0012764998 -0.004440933
000150 d2 78 cf 3a 90 b5 f9 b9 8f b4 47 3b e0 2d 81 bb
       0.0015828854 -0.00047628256 0.0030472612 -0.0039422363
000160 f3 80 32 ba ff a3 20 38 42 1f a7 ba fb e3 45 ba
       -0.0006809376 3.8299706e-05 -0.0012750404 -0.00075489254
000170 52 be 89 3b e7 70 a8 39 ec c0 bc 3a e2 71 06 3b
       0.004203596 0.00032127576 0.0014400757 0.0020514657
000180 62 42 f8 b9 4c d8 ff 3a af 26 2d bb dd f6 9d bb
       -0.00047351705 0.0019519418 -0.0026420762 -0.004820688
000190 59 39 77 3b a0 b7 e4 b8 96 a6 43 bb 55 3c 32 bb
       0.003772339 -0.0001090609 -0.0029853932 -0.0027196605
0001a0 d1 9b 31 3b e2 68 9c 3b 39 19 25 bb f5 65 6d 3b
       0.002710093 0.004773245 -0.0025192036 0.0036224101
0001b0 f0 08 97 bb d3 44 91 3b 5f 0d 9b ba 64 71 4b 3b
       -0.0046092197 0.0044332533 -0.0011829546 0.0031042928
0001c0 06 2a 9c 3a 88 b7 c9 3a 2f e7 0f 3b e9 2e 5e bb
       0.001191438 0.001538978 0.0021957865 -0.0033902472
0001d0 e5 ee 9c 3b 83 d5 80 3b db 3a 1e bb 48 bb 84 3a
       0.0047892206 0.0039317026 -0.0024143967 0.0010126615
0001e0 a1 fc 03 3a bb 3a 94 bb 9b 65 36 3b 5c 13 4f 3b
       0.0005034898 -0.004523603 0.0027831558 0.0031597232
0001f0 f8 f8 9c bb 5d 72 33 bb 64 c1 96 bb 13 90 51 ba
       -0.0047904216 -0.0027381398 -0.0046006907 -0.0007994186
000200 f6 94 0a bb 84 37 a6 bb 68 02 76 bb bc 37 fc 3a
       -0.0021145917 -0.005072536 -0.0037538055 0.0019242684
000210 97 5c 11 bb 7e cf 7d 39 fd 3d 9c bb da f4 3c 3a
       -0.0022180432 0.00024205257 -0.0047681318 0.00072081166
000220 3c 43 4e bb 84 04 44 bb 58 9e 26 3b 21 a0 a1 b8
       -0.003147318 -0.0029909918 0.002542397 -7.7069046e-05
000230 07 8e fb 3a 94 b7 30 bb 08 96 0a bb 8a b2 17 b9
       0.0019192108 -0.002696489 -0.0021146554 -0.00014466993
000240 9b 18 00 bb 6e 10 27 bb 84 30 96 3b 43 30 41 ba
       -0.0019545916 -0.002549197 0.00458342 -0.0007369557
000250 f1 3f 36 3b 8e 04 89 bb 14 7e 80 ba 6e 0d 61 3b
       0.0027809108 -0.004181451 -0.0009803199 0.003434028
000260 b8 99 4d bb 96 37 6b bb 66 52 10 bb fd b4 d5 3a
       -0.003137214 -0.0035891286 -0.002202177 0.0016304549
000270 bd bb 1d 3b 75 88 cc ba 0d 95 cc ba 19 9f a5 bb
       0.00240682 -0.0015604632 -0.0015608385 -0.0050543663
000280 c2 f3 5a 3b ff f0 8f bb 67 b6 c2 ba b8 69 1c bb
       0.003340945 -0.0043927426 -0.0014855386 -0.0023866724
000290 99 75 01 ba ed f1 a3 3a 8f fa a6 3b 61 4e 5b bb
       -0.0004938483 0.0012508013 0.005095787 -0.0033463466
0002a0 e3 8a 47 3a dd f7 92 3b 27 0e 4a 3b 0f 09 4a ba
       0.00076119433 0.004485114 0.003083119 -0.00077070383
0002b0 46 15 93 3a 16 df a1 bb 4e bd c7 3a 42 9a 9a bb
       0.001122155 -0.004939924 0.0015238912 -0.004718096
0002c0 0f 52 2d ba df de 5d 3b 41 91 23 bb 1a 22 a1 ba
       -0.0006611654 0.0033854765 -0.0024958404 -0.0012293488
0002d0 7f 8a 5c bb 4f 3d 97 ba f7 b8 89 3b 83 21 0b 3b
       -0.0033651886 -0.0011538657 0.0042029577 0.0021229691
0002e0 f0 7a 91 bb 89 b6 03 39 ae 7e 3e bb a1 cc 6c b9
       -0.004439704 0.00012561133 -0.0029067206 -0.00022582944
0002f0 01 39 f9 ba dd 00 8e 3b 18 1f 45 3b fb 25 ae 3a
       -0.0019014181 0.004333599 0.0030078348 0.0013286466
000300 5c 2b 79 bb 25 54 db 3a e7 6c 6b 3b 2a df 03 3b
       -0.003802023 0.0016733451 0.0035923065 0.002012203
000310 24 a6 93 bb a6 b7 39 3b 49 5c 36 bb 95 af 6d bb
       -0.0045058895 0.0028338223 -0.0027826002 -0.0036267985
000320 02 7d 86 ba 9f 2d 0e 3b 35 9a 5e 3b f3 22 c4 38
       -0.0010260644 0.0021694673 0.0033966426 9.352518e-05
000330 de 16 75 3a 0a 5f e6 ba 0d 49 ae 3a 9d 96 6f ba
       0.0009349416 -0.0017575931 0.0013296917 -0.00091395696
000340 4f 12 9a bb cb c5 9b 3b 1c 35 0c bb 9d 4d a4 bb
       -0.0047018896 0.0047538034 -0.002139396 -0.005014135
000350 10 ea 48 39 65 65 a7 ba 6a ed 6e 3b 3e 41 14 3b
       0.00019160681 -0.0012771307 0.0036457428 0.0022621895
000360 77 6c 29 3b ad 17 8a bb df 22 a7 b9 a7 72 9e bb
       0.0025852004 -0.004214248 -0.00031878703 -0.004835445
000370 11 50 4b 39 2e ce 52 b9 f4 8c 80 3b f2 b1 2d 3b
       0.00019389416 -0.00020103969 0.003923053 0.0026503769
000380 03 5a 86 bb f1 d5 59 3b 23 ce bb ba 54 f3 90 3b
       -0.0041000857 0.0033239091 -0.0014328401 0.004423538
000390 3c a9 98 3b 2a 20 8d 3b 4d 0d 83 bb d7 06 b7 3a
       0.004658846 0.004306813 -0.0039993883 0.001396383
0003a0 53 52 a8 ba c6 bd 16 bb 1f 53 ad b9 40 da 8c bb
       -0.0012841917 -0.0023001297 -0.0003305906 -0.0042984784
0003b0 fe 68 32 bb a0 fe 8c 3b 96 04 a3 bb 0d d3 08 39
       -0.0027223225 0.0043028146 -0.004974912 0.00013048593
0003c0 48 0d 94 b9 dd 25 d4 3a 4a 9c b6 3a fe ef 51 3b
       -0.00028238655 0.00161856 0.0013932076 0.0032033916
0003d0 fe 92 b2 b8 26 55 1f 3b 11 4f ac 38 b0 39 de ba
       -8.515081e-05 0.0024312227 8.2163264e-05 -0.0016954448
0003e0 8f 9f 75 bb 49 f6 05 ba 21 6d 9c bb aa 5f 44 bb
       -0.0037479138 -0.0005110247 -0.0047737514 -0.0029964247
0003f0 f2 97 49 3b 29 72 5f bb f0 38 15 3b 46 9a 86 3b
       0.0030760732 -0.0034095144 0.0022769533 0.0041077463

net.net.2.0.bias f4 [256]
000000 64 98 09 3d 6e 56 73 bd f2 d8 77 3d 38 00 51 3d
       0.033592597 -0.059408598 0.06050963 0.0510256
000010 0a f2 44 bd 00 48 0b 3b 22 75 25 3d 76 70 33 bd
       -0.04808239 0.0021252632 0.04039491 -0.043808423
000020 40 0c bd ba 48 d4 0a bd 48 8b 00 bd 1e 3b 5b 3d
       -0.0014423206 -0.033893853 -0.03138283 0.053523175
000030 e4 82 45 3d 00 0a 00 ba b8 3a c4 3c 12 e3 74 bd
       0.04822053 -0.00048843026 0.02395378 -0.059786864
000040 dc 16 9f bc 30 9c c1 3b 3a 6a 78 bd 1e 46 2b bd
       -0.01942008 0.0059085116 -0.06064818 -0.041814916
000050 a2 44 1b 3d 44 2d f0 3c fc b5 2b bd f0 79 18 3d
       0.03790725 0.02931846 -0.0419216 0.037225664
000060 c4 9e cf 3c 60 05 73 3c a8 16 76 bd c0 4a d2 3a
       0.02534426 0.0148328245 -0.0600802 0.0016044006
000070 00 68 db bb e8 36 50 bc 90 0e d0 bb e4 18 f5 bc
       -0.0066957474 -0.012708403 -0.0063493922 -0.029919095
000080 00 25 d8 3b 48 69 38 3c 1c 95 f8 3c e8 a7 a5 bc
       0.0065962076 0.01125557 0.030344538 -0.020221666
000090 20 6f 77 3d 24 58 a5 bc 72 30 0e 3d 44 c8 f3 3c
       0.06040871 -0.02018363 0.03471417 0.02975858
0000a0 5c 9b c4 bc 50 ef 2d bc 24 40 0e 3d 80 3f 63 3b
       -0.023999862 -0.010616139 0.034729138 0.00346753
0000b0 f0 70 00 bd 28 c0 5e bd ea 83 4d bd 80 33 99 bc
       -0.031357706 -0.054382473 -0.05017463 -0.018701315
0000c0 ac 8c 70 3d 0c f8 e4 3c 40 0b 51 bc 70 bc 9b 3b
       0.058727905 0.02795031 -0.01275903 0.004752688
0000d0 30 3a 35 3c 4e 48 1b 3d 12 97 47 3d 58 75 41 3d
       0.011061236 0.037910752 0.048728056 0.04723105
0000e0 58 06 08 3d 58 92 7e 3d 22 70 6e bd 1c 54 c8 bc
       0.033209175 0.062151283 -0.058212407 -0.024454169
0000f0 90 cf 48 3d d6 e9 22 3d 68 14 60 bd 8c 38 7e bd
       0.049026072 0.039773785 -0.05470696 -0.062065646
000100 22 a4 78 bd 4a 89 36 3d d0 c8 42 3d 84 34 f3 3c
       -0.060703404 0.044564523 0.04755479 0.029688127
000110 54 8c aa 3c 54 c9 3c 3d 8a 44 2d bd b8 f2 8b bc
       0.020818867 0.04609044 -0.042301692 -0.01708351
000120 48 53 8a bc 5a 89 62 bd 48 eb 79 bd bc 4a e0 bc
       -0.016885415 -0.05530677 -0.061015397 -0.027379386
000130 0c ce db bc 00 75 2a bc a4 d5 8b bc 2c c1 e4 3c
       -0.02683165 -0.010403872 -0.017069645 0.027924143
000140 a4 5f 8d 3c a4 e9 25 3d c0 14 4c 3c 38 df dd 3c
       0.017257519 0.04050602 0.012456119 0.027083978
000150 40 d5 7c bb 7a b8 69 3d 9a 5a 51 3d 60 0b c7 3b
       -0.0038579255 0.057060696 0.051111795 0.006074354
000160 c0 c0 62 3b a0 5d 06 bd 78 d7 65 3d ec a1 78 3d
       0.0034599751 -0.03280413 0.05611369 0.060701296
000170 42 07 59 bd 2c a5 b3 3c 90 d2 68 3d 14 b8 a3 bc
       -0.052985437 0.021929346 0.056841433 -0.019985236
000180 4a 82 1e 3d 44 31 7d bd e0 df 27 3b c8 54 00 3c
       0.038698472 -0.06181456 0.0025615618 0.007832713
000190 10 c0 55 3c 4c 3b f8 bc dc ee 48 3d 20 fd 30 bc
       0.01304628 -0.030301712 0.04905592 -0.010802537
0001a0 4a 3a 2f 3d 5c 27 5c 3d ba 96 51 bd cc cd 82 3c
       0.0427802 0.053748474 -0.051169135 0.015967272
0001b0 78 bf 2a 3d ac 4f 77 3d 1c 59 22 3d 1a f7 4c 3d
       0.041686505 0.060378715 0.039635763 0.050040342
0001c0 36 df 4e bd 60 f7 04 bd 9c 53 f7 bc 16 c2 53 bd
       -0.05050584 -0.032462478 -0.030191235 -0.051698767
0001d0 22 8d 27 bd 14 19 40 3d 80 b5 e1 3a 12 9a 3a bd
       -0.04090608 0.046898916 0.0017220229 -0.04555709
0001e0 50 23 ff 3b d4 e1 f0 bc 10 f3 a7 bb 02 54 01 3d
       0.007786192 -0.029404558 -0.005125411 0.031574257
0001f0 5e 47 20 3d 48 51 1c 3c 68 04 b9 bc 86 24 49 3d
       0.03913056 0.009540863 -0.022585109 0.049107097
000200 80 21 99 3a 9c cf b0 bc 50 78 de bb ba 4a 5a bd
       0.0011682957 -0.02158337 -0.0067892447 -0.05329392
000210 28 4e 6f bc 90 fa 77 bc 28 86 c8 bc 90 59 e3 bc
       -0.014606036 -0.015135422 -0.024478033 -0.027752668
000220 54 79 f4 bc de 3e 2c bd 5e da 69 3d 00 fc 2e 3d
       -0.02984301 -0.042052142 0.057093017 0.042720795
000230 b6 eb 1b 3d 70 d6 70 3d ac 41 24 bd c0 04 11 bb
       0.03806659 0.058798254 -0.040101692 -0.0022128075
000240 18 54 05 3d 40 22 42 3b 20 d3 22 bc ec cf c0 bc
       0.0325509 0.0029622465 -0.009938031 -0.023536645
000250 16 22 45 3d 18 09 07 3c e6 f4 53 3d d0 0e 4b 3c
       0.04812821 0.008241914 0.051747225 0.012393668
000260 2c e1 f3 bc 84 a6 78 bd ee 7b 0f 3d 74 33 85 bc
       -0.029770456 -0.060705677 0.035030298 -0.016259886
000270 b8 ba 02 3d f2 f2 53 bd 60 0b bb 3b c0 f7 db bb
       0.03191635 -0.051745363 0.005708143 -0.0067128837
000280 b2 dc 0b 3d e8 41 b7 bc cc 81 bd 3c 00 81 4e 3b
       0.03414602 -0.022370294 0.023133181 0.0031509995
000290 00 aa 9e b9 60 7b 00 bb b0 6a a5 bb 62 b5 73 bd
       -0.00030262768 -0.0019604787 -0.0050481185 -0.059499152
0002a0 06 0b 3e bd 8a 85 11 bd 28 dd 6c bc b8 85 a0 bc
       -0.04639723 -0.035527743 -0.014457025 -0.019595012
0002b0 7a ab 02 3d d4 50 a0 3c 20 95 fa bc 3e 7d 7f 3d
       0.031901814 0.019569792 -0.030588686 0.0623753
0002c0 80 41 13 bd 1a 73 06 3d b0 4c 94 bb 28 d0 5a 3d
       -0.035951138 0.032824613 -0.0045257434 0.05342117
0002d0 70 fa c3 bb be 44 0c 3d a0 45 0c bb 80 6a 06 ba
       -0.005980782 0.034245245 -0.0021403804 -0.0005127564
0002e0 74 83 f3 bc e4 74 e0 3c 26 92 09 bd 8a 3f 2b 3d
       -0.029725768 0.027399488 -0.033586644 0.041808642
0002f0 9c dc e8 bc a0 79 d7 bb c0 75 d9 3c b8 9f 5c 3d
       -0.028425507 -0.006575778 0.026545405 0.053863257
000300 52 40 5f 3d 30 21 ce 3c 3c 2c 08 bd dc c4 1f 3d
       0.0545047 0.02516231 -0.03324531 0.0390061
000310 20 21 e3 3c 80 b7 2d bd 64 6b 62 3d 34 5c 4f 3d
       0.027725756 -0.042411327 0.055278197 0.05062504
000320 3e 74 62 3d 4c 93 15 bd 70 be ac 3b ac 73 71 3d
       0.05528664 -0.036517426 0.0052717254 0.058948204
000330 54 a1 f4 3c 54 ee 52 bd e4 e0 f4 bc f8 f7 b9 3c
       0.029862083 -0.05149682 -0.029892392 0.022701249
000340 48 77 77 bc 32 b6 4e bd 20 2c be 3c 60 a8 60 bb
       -0.015104122 -0.050466724 0.0232144 -0.0034280047
000350 04 d4 51 bd a2 da 22 bd ac 34 db bc 10 43 50 bd
       -0.051227584 -0.039759286 -0.026758514 -0.050845206
000360 84 38 21 3d 2e 3e 65 3d 78 45 0a bd 2c 7c 25 bd
       0.039360538 0.055967502 -0.033757657 -0.040401623
000370 38 a9 f3 3c ae b3 22 bd ea e5 6a 3d 60 68 f6 3c
       0.029743776 -0.039722137 0.05734817 0.030079067
000380 34 51 61 3d e0 1a 08 bc 90 f8 21 3d 08 07 0a bc
       0.055009082 -0.008307189 0.03954369 -0.008424528
000390 90 59 ea 3c 70 54 bd 3c 90 cc b8 bb 40 b9 d8 3a
       0.02860716 0.023111552 -0.00563962 0.0016534701
0003a0 7e d2 53 3d 90 87 92 bc ea 32 64 bd 86 14 75 3d
       0.051714413 -0.017886907 -0.055712618 0.059834026
0003b0 68 b4 ca 3c f0 07 cb bc f0 d6 c6 3c 8c ca 62 3d
       0.024744228 -0.024784058 0.024272412 0.055368945
0003c0 38 ef f0 3c 1c c1 ce bc d8 6a 9e bc 48 d5 0c 3d
       0.029410943 -0.025238566 -0.019338056 0.03438309
0003d0 70 99 46 3c b0 e1 28 bd 4e 32 32 bd 94 a6 af bc
       0.012121543 -0.041230857 -0.043505006 -0.021441735
0003e0 48 8e e8 bc 38 b0 1c 3c b0 2b 39 bc 08 e8 69 3c
       -0.028388157 0.009563498 -0.01130192 0.014276512
0003f0 20 d9 c3 3c 36 ae 45 3d 7c 93 7c 3d c2 b1 42 3d
       0.023907244 0.048261844 0.06166409 0.047532804
